models/bitcoin_predict_weights.pth (torch, 206802 bytes, 11 tensors)

lstm.weight_ih_l0 f4 [256, 1]
00000000: 5238 023e d7ea 4a3e c499 08be 7592 c43d
00000010: b2b9 24be 0fa1 cfbd fc42 e03d 5eff 72ba
00000020: 6857 5dbe a651 913d ded6 933d a7a9 c13c
00000030: bbdb 12be aed2 61be 2b3d 20be 1aef 1abe
00000040: 9ab9 ac3d d86b 2d3d 1312 1e3d 88e7 b9bc
00000050: e824 813b fb02 b4bd 1683 093e 38d6 0b3c
00000060: 1bf5 193d e6f1 e9bc 4f3f a43d bea1 1fbe
00000070: 05cb 70bd 4933 343e e573 583e 9a7d 543e
00000080: e78a 793e f7ad a73d 2479 d93d ae9f 2a3c
00000090: 8660 fdbd bb8e 803d 4819 e63d 520a d63d
000000a0: 19ca 64bd dae6 cdbc 202f 6ebd 1fb4 0dbe
000000b0: f33b a5bd ae5e e7bd e111 b0bd f221 0ebe
000000c0: 4a1d 91bd beb9 553e 93e2 473e d025 433e
000000d0: 2d93 3a3e b579 fa3c 2cc2 173e a3b0 d93d
000000e0: 35c4 833d f26a 14be 0e1b e1bd bf48 25bd
000000f0: 448c 1f3e 4d11 613c fb20 853e 4183 173e
00000100: 085b 92ba 5e43 a73d 449d 81be 2fc0 47bd
00000110: b314 78be d8d6 88be 01c4 57be 33f8 b9bd
00000120: 9005 6abe 11df f8bd d09f f2bd 0945 03be
00000130: e65b dfbd 0885 96be 77f6 9ebe e5b9 90be
00000140: ade2 45be 53c5 1cbe cc8c 18be 3788 8ebe
00000150: 48e1 8cbe a5fe 81be f634 19be 70e6 06be
00000160: fe85 d4bd 1c16 e0bd 0c23 f0bd 2550 91be
00000170: 248f 65be 5ff1 853d 9f2a cdbd 8caf 01be
00000180: b56e 4ebe f8a2 18bd a0bc 19be 3273 9cbe
00000190: 4c1c 84be abae 02be fc5b e2bb d376 32be
000001a0: 1dab 74be 08ed 5bbe 334d 8dbe 9279 d8bd
000001b0: 53dd 81be 11a5 98be 5333 67bd 33bb d7bd
000001c0: 587d 89be a294 87be e00f 1fbe a0c8 23be
000001d0: 821a 47bd 9ad5 59be 819f 1abe e475 79be
000001e0: c581 c8bd 8cd2 b5be 82a5 9fbe 64a0 3dbe
000001f0: 9dc1 abbe 223e 06be cd9a b33d eac7 59bd
00000200: 7421 90be ad35 84be 96e3 b5be f997 943e
00000210: bf3e ab3e 728b a93e ee5d b0be 3a6c 8bbe
00000220: 6014 b5be f78f 953e 1fac 98be 6d27 973e
00000230: f438 1ebf c1aa c03e 2934 a93e e0d6 bdbe
00000240: ac49 aebe 5fef 96be 6782 973e de71 acbe
00000250: e9f6 a93e 2bd1 a4be 1a61 b7be 3769 983e
00000260: 97d0 95be 53e5 90be a6cd a23e 2c8b b4be
00000270: 0646 adbe f59c 8a3e dca4 d8be 86f6 c7be
00000280: d554 c7be bc37 8a3e 8700 9f3e 69a1 b03e
00000290: 4ca4 a33e 90d1 aabe f802 8bbe 8fb6 ba3e
000002a0: fbff a5be c053 a6be 5bfc a73e eff0 24bf
000002b0: 4235 abbe a004 ab3e 117e 28bf b5a3 1d3f
000002c0: 81e9 b9be a325 cd3e a031 bfbe aa6e c93e
000002d0: 3a4a e83e c680 98be a43e aabe b563 b1be
000002e0: d502 933e 8231 c5be 2c72 aabe 582a 9ebe
000002f0: 0570 bfbe e212 97be cf65 8fbe 907c 993e
00000300: 2670 2a3e 0f8a 7b3e 6e55 fcbd f424 043e
00000310: 4519 20be d2bb b5bd 8ad5 063e 64cb b53c
00000320: 4bb2 5dbe 9856 cd3d 1e9c c93d e435 583d
00000330: a88b 35be f194 59be 844b 19be 6f83 12be
00000340: bebb d63d 0984 863d c2af 7c3d 1a1f eaba
00000350: 6073 f53c 3173 a1bd c72b 253e 4840 0a3d
00000360: e04f 843d 0cc0 c1bb 397a de3d 716b 17be
00000370: eb62 2cbd e816 653e 158c 673e 3bd3 723e
00000380: 9f2c 8d3e f7f0 ef3d a2eb 043e 2b87 fc3c
00000390: a9ab e3bd 9e7b b63d 7b8f 173e 19fa 043e
000003a0: 3cb2 11bd b5b6 1d3b f522 37bd 9310 32be
000003b0: a137 73bd e0f7 d3bd 6e3f 18be a2b0 30be
000003c0: ef82 67bd a88f 6e3e 45db 5a3e f559 5b3e
000003d0: 246e 563e 2b35 563d cb92 333e 57b7 053e
000003e0: fcb1 c33d c855 07be b86f c9bd 80da a4bc
000003f0: 387d 383e 6c1c 2f3d 80d8 9d3e dcf9 3c3e
0.12716797 0.19816147 -0.13339907 0.09598247 -0.16086462 -0.10138141 0.10950276 -0.000926962
-0.21615374 0.07095651 0.07218717 0.023640467 -0.14341633 -0.22053024 -0.15648334 -0.15130273
0.08433838 0.042339176 0.038591456 -0.02269341 0.003941167 -0.08789631 0.13428912 0.00853496
0.037587266 -0.028557729 0.08019888 -0.15589043 -0.058787365 0.17597689 0.2113796 0.20751038
0.24369393 0.08187478 0.10618809 0.010414047 -0.12371926 0.06277224 0.11235291 0.10451187
-0.055856798 -0.025134493 -0.05815041 -0.13838242 -0.08068075 -0.112973556 -0.0859716 -0.13880137
-0.070856646 0.20871636 0.19520025 0.19057393 0.18220206 0.030575613 0.14820164 0.10629394
0.06433908 -0.14493921 -0.109914884 -0.04035258 0.15580851 0.013737035 0.26001725 0.14796163
-0.0011166045 0.08167146 -0.25315297 -0.048767265 -0.24226646 -0.26726413 -0.21070863 -0.09080543
-0.22853684 -0.121519215 -0.11846888 -0.12819304 -0.109062 -0.2939837 -0.31047413 -0.28266826
-0.19324751 -0.15309648 -0.1489746 -0.278383 -0.27515626 -0.2538959 -0.14961609 -0.13173842
-0.103771195 -0.10941717 -0.11725435 -0.28381458 -0.22417885 0.065401785 -0.10017895 -0.12664622
-0.20159419 -0.037264794 -0.15013361 -0.30556637 -0.2580284 -0.12761943 -0.006907938 -0.1742814
-0.238934 -0.21477139 -0.2759796 -0.10570063 -0.2536417 -0.29813436 -0.05644543 -0.10533752
-0.26853442 -0.26480585 -0.155334 -0.15994501 -0.048609264 -0.21272889 -0.15099908 -0.24361378
-0.097903766 -0.35512197 -0.3118096 -0.18518215 -0.33546153 -0.1310964 0.0876976 -0.05316917
-0.28150523 -0.258222 -0.35525197 0.29022196 0.3344631 0.331142 -0.34446663 -0.27231008
-0.35367107 0.292114 -0.29818818 0.29522267 -0.61805654 0.37630275 0.33047608 -0.37078
-0.34040582 -0.294795 0.29591677 -0.33680624 0.3319619 -0.32190832 -0.3581627 0.29767773
-0.29260704 -0.2829996 0.31797522 -0.3526243 -0.33842486 0.27072874 -0.42313278 -0.3905527
-0.3893191 0.26995647 0.3105509 0.34498146 0.31961286 -0.33363008 -0.27150702 0.36467406
-0.3242186 -0.3248577 0.3280972 -0.64430135 -0.3343907 0.33401966 -0.6581736 0.6157792
-0.36310962 0.40067777 -0.37342548 0.39342242 0.4536913 -0.29785746 -0.33250916 -0.34646383
0.28713098 -0.38514334 -0.3329023 -0.3089168 -0.37390152 -0.29506594 -0.2800736 0.29977846
0.16644344 0.24564384 -0.12320982 0.12904721 -0.1563464 -0.088737145 0.13167396 0.02219171
-0.21650045 0.10026282 0.0984423 0.05278577 -0.17729056 -0.21248223 -0.14970213 -0.1430795
0.10485028 0.065681525 0.061691053 -0.0017862052 0.029962242 -0.07883299 0.16129981 0.03375271
0.064605474 -0.0059127863 0.10863156 -0.1478708 -0.042086523 0.2237202 0.22612031 0.2371339
0.27573106 0.11715882 0.12980512 0.030826172 -0.11116726 0.08910297 0.14800827 0.1298603
-0.03557037 0.00240652 -0.044711072 -0.17389135 -0.059379224 -0.10350013 -0.14867947 -0.1725488
-0.056521352 0.23296988 0.21372707 0.21421035 0.20940453 0.0522968 0.17536466 0.1305822
0.09555432 -0.13216317 -0.09835762 -0.02012372 0.18016517 0.042751715 0.3082924 0.18454689

lstm.weight_hh_l0 f4 [256, 64]
00000000: 64d4 07be 83ce a8be c635 1dbe 418c 5b3e
00000010: 471a d73d fc78 153e 48bf 42be e87b 44be
00000020: 2190 4bbd 4891 8a3e 5c89 68be 08ee 423e
00000030: 1c69 7cbd 5315 9b3d 45d6 bd3d 941f 0cbe
00000040: 6e9f 2ebe e554 53be 6bd1 593e 9b90 21be
00000050: 6b92 1a3e bcee 1cbe e91d 26be 6f1e 3f3e
00000060: 3969 63be 7d3b 4ebe e881 763e f4ed 18be
00000070: f004 21be 6cba 9a3e e008 19be f47b 48be
00000080: 827c 39be a01a 833e e6e8 513e 3e06 1b3e
00000090: 49c4 043e 3a32 2cbe 752d 83be f266 3c3e
000000a0: 56c9 13be 772f 13be 14a4 253e ced5 72bd
000000b0: 6ae5 1dbe 138d d33d ef2d a0bd 87d2 7a3d
000000c0: a646 e9bd 71be 1a3e 7289 24be 86d8 1d3e
000000d0: 3126 293e 7e2b 39be 21b2 81be 8bed 03be
000000e0: 23f3 563e f532 dcbd 7a4a 26be bdd8 44be
000000f0: 6510 2fbe 9d43 51be dfcf b0be 6564 593e
00000100: d838 a8be 5f8b 93be 4c28 88be c7be b33e
00000110: 42d5 7b3e 8282 763e 4956 a5be 4282 adbe
00000120: 2da3 68be 92b1 bb3e 37a9 a9be 90d7 9f3e
00000130: 424e 09be ca6f 643e 668e 873e 3e46 78be
00000140: d892 a2be 3f97 b6be 2e15 b03e be18 85be
00000150: f797 833e 35d9 90be 8621 a9be c5e3 9e3e
00000160: 142e abbe 79d3 a3be babd a73e 88ac 88be
00000170: 2b7e 8abe bb5f bd3e 3d6a 82be 5bf7 8fbe
00000180: 5250 85be 2d9c c33e 4ad3 ba3e a794 8c3e
00000190: f873 993e 2295 9bbe 01b6 bebe b315 933e
000001a0: eebe 8abe fd98 86be d1b7 913e 9888 07be
000001b0: e354 8abe 2641 793e ee10 15be d718 083e
000001c0: 87ca 74be bff1 853e 9093 93be c1a2 793e
000001d0: 3024 833e 993d a1be 0576 a4be e3ea 8fbe
000001e0: 40ee b53e cf52 64be d84a a3be c028 9dbe
000001f0: 25b4 6cbe 85ec a1be ddbd c9be 2aec ba3e
00000200: ea93 403e 6c22 0b3e 9134 783e 2975 24be
00000210: 43c7 50be 8eb7 41be 80b3 533e 8cb0 1c3e
00000220: 672c 1e3e 7b8c 47be ff30 1b3e 22c2 42be
00000230: 72d8 cc3d 1310 2ebe 4d8c 4abe 3398 3c3e
00000240: d1d3 3c3e 6c71 5d3e c236 47be 20a5 4c3e
00000250: 791a 56be cf6d 683e a20f 513e 3e45 3bbe
00000260: 0fb1 563e 5417 3c3e c2ee 89be 6901 323e
00000270: 9a5b 713e 7c3c 2ebe 176f 723e 4ae1 823e
00000280: fede 7b3e 2e3e 3bbe 48a1 6fbe 9603 77be
00000290: 4692 57be a714 2c3e b8ba 413e a8b7 6ebe
000002a0: 275a 483e 9a3f 453e e49e 4cbe f21c d33d
000002b0: 0cc3 533e 37f5 6cbe afd8 dd3d ba0a ccbd
000002c0: 3ca5 6d3e 753c 6dbe 5770 853e d885 8bbe
000002d0: 25cc 8cbe 33bf 333e 73a9 4c3e 25db 1c3e
000002e0: 3b6a 19be 83ce 4d3e 0a20 543e 803f 493e
000002f0: 1afe 853e bc48 473e 1d36 153e 5191 3abe
00000300: e4bb 3abe c8b5 8dbe 3f33 dabd 72a5 893d
00000310: ce6e 5b3d 1843 f63d 3668 e6bd bd1c 35be
00000320: ea3a ccbc b3ae 3a3e 6eb0 24be f962 203e
00000330: 46ae 30bd ff54 3e3d 6783 723d a3f5 4fbd
00000340: 02be f9bd c5bf d2bd bc75 123e 2239 efbd
00000350: a574 193e 987d ecbd dea4 27be 7a94 173e
00000360: d68b 1abe 1f15 27be 98f1 143e a4de e3bd
00000370: 1a28 dbbd f5e2 623e 5a2f b6bd c0d0 1ebe
00000380: 9334 07be 124c 4f3e 69d2 1d3e 52cc f73d
00000390: 55c4 883d 71ba 10be eed0 41be 83d1 fe3d
000003a0: 62a8 00be ee27 f5bd 1c16 183e 8dcf 22bd
000003b0: e3b6 ebbd 0c6d 123d de19 68bd 3959 283d
000003c0: 7769 d2bd 7966 eb3d ca40 00be 2461 103e
000003d0: 8aa2 cd3d e51d 2dbe 846d 15be 7531 21be
000003e0: 9c20 2d3e 7b33 b3bd 059a b9bd fa06 06be
000003f0: e007 babd 6021 20be 4a1a 8cbe 0682 683e
-0.13264614 -0.32970056 -0.15352544 0.21440221 0.10503059 0.14596933 -0.1901828 -0.19187891
-0.049698 0.27063966 -0.22708648 0.19036114 -0.061623678 0.07572427 0.09269384 -0.13683921
-0.17053005 -0.20637853 0.21271293 -0.15777819 0.15094917 -0.15325445 -0.16222347 0.18663953
-0.22208108 -0.2013988 0.24072993 -0.14934522 -0.1572454 0.30220354 -0.14944792 -0.19578534
-0.18113902 0.2560625 0.20499 0.151391 0.12965502 -0.16816035 -0.25620618 0.18398646
-0.14432272 -0.14373575 0.16175872 -0.05928593 -0.15419546 0.10329642 -0.07821261 0.06123593
-0.11390428 0.1511171 -0.16068056 0.15414628 0.16518475 -0.18082997 -0.25331214 -0.12883584
0.20991187 -0.10751907 -0.16239348 -0.19223304 -0.17096098 -0.20435949 -0.34533593 0.21229704
-0.32855868 -0.2881727 -0.26593244 0.3510649 0.2459307 0.24073222 -0.32292393 -0.3388844
-0.22718497 0.36658913 -0.33136913 0.3121915 -0.13408759 0.22308269 0.2647583 -0.24245545
-0.31752658 -0.35662267 0.3439116 -0.2599544 0.25701877 -0.28290716 -0.3303339 0.3103315
-0.33433592 -0.31997278 0.32761937 -0.2669413 -0.27049384 0.369871 -0.25471678 -0.28118405
-0.26037842 0.3820509 0.36489326 0.27457163 0.2997129 -0.30387217 -0.37248233 0.28727493
-0.27098793 -0.26288596 0.28460553 -0.132357 -0.27017888 0.24341258 -0.1455724 0.13290726
-0.23905383 0.26161 -0.2882352 0.24378492 0.25613546 -0.31492308 -0.32121292 -0.28108892
0.35533333 -0.22297214 -0.3189304 -0.30695152 -0.23115595 -0.31625763 -0.39402667 0.36508304
0.18806425 0.1358735 0.24238802 -0.16060318 -0.20388512 -0.18917677 0.20673943 0.15301722
0.15446626 -0.19487183 0.1515541 -0.19019368 0.10002221 -0.1699832 -0.19780083 0.18417434
0.18440177 0.21625298 -0.19454482 0.19984865 -0.20908536 0.22698139 0.2041612 -0.18288133
0.2096598 0.18368274 -0.2693997 0.1738335 0.235701 -0.1701526 0.2367519 0.25562507
0.24596784 -0.18285438 -0.23401368 -0.24122462 -0.21051893 0.16804753 0.18918884 -0.23312247
0.1956564 0.19262543 -0.19982487 0.10308255 0.20679873 -0.23140417 0.10832345 -0.099629834
0.23207563 -0.23167594 0.2606227 -0.27250552 -0.274995 0.17553405 0.19986515 0.15317972
-0.1498193 0.20098309 0.20715347 0.1965313 0.26170427 0.1946134 0.14571424 -0.18219496
-0.18235737 -0.2767775 -0.10654306 0.06721009 0.05357247 0.12024516 -0.112503454 -0.17686744
-0.024930436 0.18230705 -0.16082928 0.15662755 -0.04313495 0.046467777 0.059207346 -0.050771367
-0.12194444 -0.102904834 0.14302725 -0.11680819 0.14985903 -0.115473926 -0.16371486 0.14802733
-0.15092406 -0.16316651 0.14545286 -0.1112645 -0.10701008 0.2215689 -0.0889575 -0.1550932
-0.13203649 0.20243862 0.15412296 0.12099518 0.06678072 -0.14133622 -0.18927357 0.12442305
-0.12564233 -0.119705066 0.14852184 -0.039748717 -0.11509492 0.035748526 -0.056665294 0.041100714
-0.10274022 0.114941545 -0.12524715 0.14099556 0.100407675 -0.16905935 -0.14592558 -0.15741523
0.1690697 -0.087500535 -0.0906258 -0.13088599 -0.09083533 -0.15637732 -0.27363807 0.2270585

lstm.bias_ih_l0 f4 [256]
00000000: 00ad ebbd f116 14be 8faf 5fbc 3fe7 c5bd
00000010: e5de acbc ec5f b0ba b691 993d d27a cebd
00000020: 3232 4fbc b5ab b2bd 0361 47bd 66d1 8dbd
00000030: 7a0d d23d 36e8 7dbc 4c2f ccbc 81d6 113c
00000040: 656e 423d 92ea 59bd a4d1 6bbd f48e 763c
00000050: 6b3b fa3c 5341 05bd c232 e83d d6b3 1ebd
00000060: 98ae adbd 3e6e 9ebd 4a21 11bd dcde 6dbc
00000070: baf1 e739 82c1 19be bdcd ae3e 1ac4 733e
00000080: 4b63 943e 1f90 08be 6834 b4bc f9a3 2c3d
00000090: b5a4 41bd f56e cb3b 1f1a 16be 352a 003e
000000a0: 5b65 00bd 7cff 98b9 57f1 07bc 274a dc3d
000000b0: 30b1 f3b9 bdbc 65bc 9606 1e3e a90f d23d
000000c0: 684e 243d 8b38 9e3e c7a3 363e 46ca 773e
000000d0: ad1d be3e 2575 33bd f51e a43c a25d ac3d
000000e0: 2682 a7bd 700a 763d b9d2 83bc 70c5 09bd
000000f0: 8a40 653e 66ff 73bd ec7b ddbd 8b93 d8bd
00000100: 3d37 74be d664 5cbe baf6 87be f77f 84be
00000110: 7836 80be 0ec4 96be c4db 9fbe 112a 7dbe
00000120: 4720 5cbe 6a42 9dbe fddc 90be 814e 8dbe
00000130: ed96 e0bb 41b1 8cbe e3a6 91be 575f 93be
00000140: 88e0 a1be 9f2d 97be e041 9dbe 03ea 9ebe
00000150: 3175 aabe 6b4a 91be 49a6 8ebe bd26 85be
00000160: b04c 8cbe 5b32 6dbe 0415 98be fed4 8cbe
00000170: a721 8bbe bf99 5dbe 5e1a 2dbe 91c3 69be
00000180: 6f14 86be 07eb 81be b19e 9fbe 8067 aebe
00000190: 8a17 8bbe 30eb 86be 31fc 82be dfc5 81be
000001a0: e087 93be f087 93be 825a 95be befc d0bb
000001b0: 7085 91be 9ffb 9abe c4bc 283d 7aaa dabb
000001c0: 6642 93be 3506 66be e73d 8abe 61eb 6cbe
000001d0: eff3 e9bd a76b afbe 0dc2 b1be 97c1 aebe
000001e0: f7e4 91be d701 a1be e5a1 92be fc7b 89be
000001f0: a94b 9abe 6e26 89be ec55 62be 51b9 9dbe
00000200: 5989 833d b564 c03d 98f3 6c3d 3302 83bd
00000210: 7613 34bd e625 a6bc 0f7f 543d 16d3 733d
00000220: 6e20 2c3d fb2d 8dbd 0325 603d 9638 ddbc
00000230: 49ff 9c3d d261 53b9 79b1 04bd 25cb 933c
00000240: 1e7f 833d 77ff 8b3d 8279 d8bd fb9e ffba
00000250: ae31 acbd 91e9 3c3d db33 9eba dda2 3dbd
00000260: 3dbc 2f3a db7a 213d 2749 e8bd bb2a cfbb
00000270: be4e ad3c f957 b5bc ebaa 053e 6beb a73d
00000280: 4c5e 813a 9430 98bd 3c0a 59bd 9e49 dfbd
00000290: f40d 3dbd c421 393d dcfd 8f3d 5528 f1bc
000002a0: 821c bb3d b36d 3d3d 9336 afbd cfaf 103c
000002b0: f7c3 763d c13d 97bc d9c0 3ebc 108c babc
000002c0: 31f2 073d 692d 54bd de21 933c ccd6 403d
000002d0: fd6a babd 7426 763c cf87 6a3d 5185 32bc
000002e0: 4eda 56bd 72bd bc3c 4fbe eb3c 2cf5 233d
000002f0: 2d2a c53d 566a 2e3d 19d1 b73d f9de b3bd
00000300: d68f f2bd 898a 1bbe 9fe7 94bc 8fb3 c6bd
00000310: 3114 e0bc a2ab bbbb 47f6 993d dc74 ccbd
00000320: e7c8 aebc 5df5 b1bd e87e 43bd eb63 8bbd
00000330: fbbc a83d fce7 bdbc ee88 01bd 266a 113b
00000340: a09f 463d 3923 58bd f6c3 67bd 42f5 543c
00000350: 39e1 ec3c a693 11bd 508b e93d 05e0 1dbd
00000360: 4f8b abbd 3f1b 9dbd 5de6 0bbd 2633 a1bc
00000370: 3194 18bb 188a 1ebe 87e2 af3e 7f88 763e
00000380: 5051 963e ff28 08be 00d4 afbc 626d 263d
00000390: 925f 4ebd 3048 df3b b620 17be abda 003e
000003a0: 1ad0 04bd e2e6 1abb e9e9 23bc 99ee b73d
000003b0: ef05 68bb e7d6 94bc 1b93 0f3e 3da0 ac3d
000003c0: 6afd 0f3d f943 a03e 98de 363e 3fcc 783e
000003d0: 4c59 bf3e 71a1 2ebd 984a b53c c8f4 ad3d
000003e0: d2cb a5bd f4a1 543d b238 a2bc 0e17 0ebd
000003f0: e668 633e ca9c 72bd fa30 f6bd 3b16 d7bd
-0.115076065 -0.14461876 -0.013652696 -0.09663247 -0.021102378 -0.0013456321 0.07498495 -0.1008202
-0.012646245 -0.08724157 -0.048676502 -0.06924705 0.10256477 -0.015497258 -0.024924897 0.008901239
0.04746856 -0.05320222 -0.057572976 0.015048731 0.03054591 -0.032533 0.11337806 -0.038745724
-0.08480567 -0.07735871 -0.035432138 -0.014518466 0.00044239854 -0.15015224 0.3414134 0.23805276
0.28982005 -0.13336228 -0.021997645 0.042148564 -0.047276217 0.0062082955 -0.14658402 0.125161
-0.03134666 -0.0002918205 -0.008297286 0.10756331 -0.00046480587 -0.0140220495 0.154322 0.10256893
0.040113837 0.30902514 0.17835914 0.24198255 0.37132016 -0.04381289 0.020034293 0.084162965
-0.08179121 0.060068548 -0.016091691 -0.033635557 0.22387901 -0.05956974 -0.10814652 -0.105750166
-0.23849197 -0.21522841 -0.26555425 -0.2587888 -0.25041556 -0.29446453 -0.31222355 -0.24723078
-0.21496688 -0.30714732 -0.282936 -0.27598956 -0.0068539293 -0.27478984 -0.28447637 -0.28783676
-0.31616616 -0.29526994 -0.3071432 -0.31037912 -0.33292535 -0.2837709 -0.2786124 -0.26006117
-0.27402258 -0.2316374 -0.29703534 -0.2750625 -0.27174112 -0.2164068 -0.1690459 -0.22828509
-0.26187465 -0.25374624 -0.3117576 -0.3406334 -0.27166396 -0.2635131 -0.25583032 -0.25346276
-0.28814602 -0.2881465 -0.29170614 -0.0063777855 -0.28422117 -0.30270097 0.041195646 -0.0066731544
-0.28761595 -0.22463305 -0.27000353 -0.23136665 -0.1142348 -0.3426182 -0.34718361 -0.34132072
-0.28495 -0.31446716 -0.2863914 -0.26852405 -0.3013585 -0.26787132 -0.22103089 -0.30805448
0.06422681 0.09394208 0.057849497 -0.06396904 -0.043963872 -0.020281743 0.051878985 0.05952748
0.042023115 -0.06893536 0.054722797 -0.027004521 0.07665879 -0.00020158969 -0.032395814 0.018041203
0.0642073 0.068358354 -0.10570051 -0.0019502336 -0.08407913 0.046121184 -0.0012069897 -0.046297897
0.000670377 0.039423805 -0.11342078 -0.0063222325 0.021155711 -0.022136675 0.13053481 0.08199199
0.0009870022 -0.074311405 -0.052988276 -0.10902713 -0.046155885 0.045198217 0.07030842 -0.029438177
0.09136297 0.046247195 -0.08555331 0.008830979 0.06024548 -0.018462064 -0.011642658 -0.022771865
0.033189956 -0.05180112 0.017960485 0.047079846 -0.09102438 0.015023816 0.057258423 -0.010896043
-0.052454285 0.023039553 0.02877727 0.040028736 0.09627185 0.04258188 0.08975429 -0.08782763
-0.11843841 -0.15189566 -0.018176852 -0.09702217 -0.027353378 -0.0057272473 0.07517677 -0.09983227
-0.021336032 -0.086893775 -0.04772845 -0.06806167 0.0823917 -0.023181908 -0.031624727 0.0022188514
0.048492074 -0.052767966 -0.056583367 0.012997927 0.028915988 -0.0355412 0.11403525 -0.03854372
-0.083761804 -0.076712124 -0.03415524 -0.01967771 -0.0023281688 -0.15482366 0.34352514 0.24075507
0.29358912 -0.13296889 -0.021463394 0.04063166 -0.05038411 0.0068140253 -0.14758572 0.12583415
-0.032425024 -0.0023636152 -0.010004499 0.08981056 -0.0035403927 -0.01816888 0.1402096 0.084290005
0.035153784 0.3130186 0.1785835 0.24296664 0.37372816 -0.04263443 0.022130296 0.08493954
-0.08095516 0.051912263 -0.019802425 -0.034689955 0.22207984 -0.059231557 -0.1202106 -0.10502287

lstm.bias_hh_l0 f4 [256]
00000000: 00ad ebbd f116 14be 8faf 5fbc 3fe7 c5bd
00000010: e5de acbc ec5f b0ba b691 993d d27a cebd
00000020: 3232 4fbc b5ab b2bd 0361 47bd 66d1 8dbd
00000030: caee ce3d 36e8 7dbc 4c2f ccbc 81d6 113c
00000040: 656e 423d 92ea 59bd a4d1 6bbd f48e 763c
00000050: 6b3b fa3c 5341 05bd c232 e83d d6b3 1ebd
00000060: 98ae adbd 3e6e 9ebd 4a21 11bd dcde 6dbc
00000070: baf1 e739 82c1 19be b7cd ae3e 1ac4 733e
00000080: 4b63 943e 1f90 08be 6834 b4bc f9a3 2c3d
00000090: b5a4 41bd f56e cb3b 1f1a 16be 352a 003e
000000a0: 5b65 00bd 7cff 98b9 57f1 07bc cb3e dc3d
000000b0: 30b1 f3b9 bdbc 65bc 9c87 203e afcd d13d
000000c0: 684e 243d 8b38 9e3e c7a3 363e 44ca 773e
000000d0: ab1d be3e 2575 33bd f51e a43c a25d ac3d
000000e0: 2682 a7bd 700a 763d b9d2 83bc 70c5 09bd
000000f0: 8a40 653e 66ff 73bd ec7b ddbd 8b93 d8bd
00000100: 3d37 74be d664 5cbe baf6 87be f77f 84be
00000110: 7836 80be 0ec4 96be c4db 9fbe 112a 7dbe
00000120: 4720 5cbe 6a42 9dbe fddc 90be 814e 8dbe
00000130: 9769 e0bb 41b1 8cbe e3a6 91be 575f 93be
00000140: 88e0 a1be 9f2d 97be e041 9dbe 03ea 9ebe
00000150: 3175 aabe 6b4a 91be 47a6 8ebe bd26 85be
00000160: b04c 8cbe 5b32 6dbe 0415 98be fed4 8cbe
00000170: a721 8bbe bf99 5dbe ce27 2dbe bdc4 69be
00000180: 0d15 86be 07eb 81be b19e 9fbe 8067 aebe
00000190: 8a17 8bbe 30eb 86be 31fc 82be dfc5 81be
000001a0: e087 93be f087 93be 825a 95be 9602 d1bb
000001b0: 7085 91be 9ffb 9abe f88f 273d 36a2 dabb
000001c0: 6642 93be e305 66be b33d 8abe fbef 6cbe
000001d0: 73b8 e9bd a76b afbe 0dc2 b1be 97c1 aebe
000001e0: f7e4 91be d701 a1be e5a1 92be fc7b 89be
000001f0: a94b 9abe 6e26 89be ec55 62be 51b9 9dbe
00000200: 3988 903d 4fb0 a43d 7202 d73b 64b4 68bd
00000210: b90f b4bc f899 86bd c1b4 4a3d 585a d53c
00000220: bb45 5f3c 4af7 30bd 03c9 7b3d 5516 9ebd
00000230: 2388 8cbd 0773 85bd 9f4e 09bd 44c2 6a3d
00000240: 75f5 0c3d 4107 c63c c2ce 253c f83c b63d
00000250: 8989 15bc 08b7 e83c 906b d53d e58a 16bd
00000260: 06d2 b33d f124 223d c580 4f3c 8290 a53d
00000270: 6aa3 7e3d 897f 0fbe 4ba4 aeba 235e fe3c
00000280: a038 e53d bfb6 61bd 891e 82bd b225 173c
00000290: 74eb c1bc 8405 583d 9c88 8f3d a98f 94bd
000002a0: 2694 5bbb a1e3 0f3d da83 3ebb 445f 4b3b
000002b0: c1b4 c93c 548e 77bd eb01 873c cc77 853c
000002c0: 5140 593d 62ac 8ebd aeb5 b73d 213c 25be
000002d0: 5c3a 40bd 7ae1 ba3d 86d4 833d 321a e53d
000002e0: 0c36 42bd 67f8 823d 49a2 533d 5e74 4a3d
000002f0: acbb 333c c497 563d cb36 bc3d c777 5bbd
00000300: d68f f2bd 898a 1bbe 9fe7 94bc 8fb3 c6bd
00000310: 3114 e0bc a2ab bbbb 47f6 993d dc74 ccbd
00000320: e7c8 aebc 5df5 b1bd e87e 43bd eb63 8bbd
00000330: 11ca ab3d fce7 bdbc ee88 01bd 266a 113b
00000340: a09f 463d 3923 58bd f6c3 67bd 42f5 543c
00000350: 39e1 ec3c a693 11bd 508b e93d 05e0 1dbd
00000360: 4f8b abbd 3f1b 9dbd 5de6 0bbd 2633 a1bc
00000370: 3194 18bb 188a 1ebe 89e2 af3e 7f88 763e
00000380: 5051 963e ff28 08be 00d4 afbc 626d 263d
00000390: 925f 4ebd 3048 df3b b620 17be abda 003e
000003a0: 1ad0 04bd e2e6 1abb e9e9 23bc 71a8 b73d
000003b0: ef05 68bb e7d6 94bc e3c8 083e c9d7 ab3d
000003c0: 6afd 0f3d f943 a03e 9ade 363e 3bcc 783e
000003d0: 3059 bf3e 71a1 2ebd 984a b53c c8f4 ad3d
000003e0: d2cb a5bd f4a1 543d b238 a2bc 0e17 0ebd
000003f0: e668 633e ca9c 72bd fa30 f6bd 3b16 d7bd
-0.115076065 -0.14461876 -0.013652696 -0.09663247 -0.021102378 -0.0013456321 0.07498495 -0.1008202
-0.012646245 -0.08724157 -0.048676502 -0.06924705 0.10104139 -0.015497258 -0.024924897 0.008901239
0.04746856 -0.05320222 -0.057572976 0.015048731 0.03054591 -0.032533 0.11337806 -0.038745724
-0.08480567 -0.07735871 -0.035432138 -0.014518466 0.00044239854 -0.15015224 0.34141323 0.23805276
0.28982005 -0.13336228 -0.021997645 0.042148564 -0.047276217 0.0062082955 -0.14658402 0.125161
-0.03134666 -0.0002918205 -0.008297286 0.10754164 -0.00046480587 -0.0140220495 0.15676731 0.10244309
0.040113837 0.30902514 0.17835914 0.24198252 0.3713201 -0.04381289 0.020034293 0.084162965
-0.08179121 0.060068548 -0.016091691 -0.033635557 0.22387901 -0.05956974 -0.10814652 -0.105750166
-0.23849197 -0.21522841 -0.26555425 -0.2587888 -0.25041556 -0.29446453 -0.31222355 -0.24723078
-0.21496688 -0.30714732 -0.282936 -0.27598956 -0.006848525 -0.27478984 -0.28447637 -0.28783676
-0.31616616 -0.29526994 -0.3071432 -0.31037912 -0.33292535 -0.2837709 -0.27861235 -0.26006117
-0.27402258 -0.2316374 -0.29703534 -0.2750625 -0.27174112 -0.2164068 -0.16909716 -0.22828956
-0.26187935 -0.25374624 -0.3117576 -0.3406334 -0.27166396 -0.2635131 -0.25583032 -0.25346276
-0.28814602 -0.2881465 -0.29170614 -0.006378482 -0.28422117 -0.30270097 0.040908784 -0.006672169
-0.28761595 -0.22463183 -0.27000198 -0.2313842 -0.11412134 -0.3426182 -0.34718361 -0.34132072
-0.28495 -0.31446716 -0.2863914 -0.26852405 -0.3013585 -0.26787132 -0.22103089 -0.30805448
0.070572324 0.08041441 0.006561571 -0.05681266 -0.021980153 -0.06572336 0.049488787 0.026044056
0.013627465 -0.043204583 0.061470997 -0.07719103 -0.068619035 -0.0651608 -0.033522245 0.057314172
0.034413774 0.02417338 0.010120096 0.088983476 -0.009127029 0.028407589 0.104209065 -0.036753554
0.08780293 0.03958601 0.012664978 0.08084203 0.062167563 -0.14013495 -0.001332411 0.031050747
0.11192441 -0.05510592 -0.0635348 0.009225296 -0.023671843 0.052739635 0.07008478 -0.072539635
-0.0033505051 0.035129193 -0.002907029 0.0031032125 0.024622323 -0.06043847 0.016480407 0.016292475
0.053039853 -0.06966473 0.089701995 -0.16136219 -0.046930656 0.091250375 0.0643702 0.11186637
-0.047414824 0.06395035 0.05166844 0.049427383 0.010970037 0.05239083 0.091901384 -0.053581025
-0.11843841 -0.15189566 -0.018176852 -0.09702217 -0.027353378 -0.0057272473 0.07517677 -0.09983227
-0.021336032 -0.086893775 -0.04772845 -0.06806167 0.083881505 -0.023181908 -0.031624727 0.0022188514
0.048492074 -0.052767966 -0.056583367 0.012997927 0.028915988 -0.0355412 0.11403525 -0.03854372
-0.083761804 -0.076712124 -0.03415524 -0.01967771 -0.0023281688 -0.15482366 0.3435252 0.24075507
0.29358912 -0.13296889 -0.021463394 0.04063166 -0.05038411 0.0068140253 -0.14758572 0.12583415
-0.032425024 -0.0023636152 -0.010004499 0.089676745 -0.0035403927 -0.01816888 0.13357882 0.08390767
0.035153784 0.3130186 0.17858353 0.24296658 0.37372732 -0.04263443 0.022130296 0.08493954
-0.08095516 0.051912263 -0.019802425 -0.034689955 0.22207984 -0.059231557 -0.1202106 -0.10502287

lstm.weight_ih_l1 f4 [256, 64]
00000000: 328d f83c fd44 6b3d 83bf a23b f57e 67ba
00000010: f97b 0c3c 001a 523c dc68 4cbb 8ac3 87bc
00000020: 7b80 edba dc09 793b 1ed0 e8bb 42ef 753c
00000030: ea3c 5d3e 5da1 71ba 66d3 583c 8d84 27bc
00000040: d047 37bc fe0b 2abc 6d44 433c e9a0 41bc
00000050: 8145 403c 7952 ffbb 57fc 253c f721 61bb
00000060: db82 c7bb 705a 1c3c 52dd 6dba 4305 2bbc
00000070: 4aaf 17bc 9209 10bd 8eaa 82bd ae1e 91bc
00000080: 2e7d aebc 314f 30bc be9d 8c3c 7c0b a43c
00000090: cca1 9c3a 2506 adb8 915d a93c a9e0 823b
000000a0: cd79 36bc d432 453c f8d0 513c 0574 7b3e
000000b0: 779d 0cbc de59 a7bb 53e5 593e 5fbe 4cbe
000000c0: 49cd 82ba e334 713d 1a05 8dbb 17dd a83c
000000d0: a798 943d 735c dabb b719 9fbb 2dbf 2fbc
000000e0: bb1a 503b 56dc ca39 b608 cabc 54f8 47bc
000000f0: ac17 a6bc 51df 33ba 327d a13d 89f8 0dbd
00000100: 5dc4 f33b a064 b53c 0f9a 7f3b 12d4 f53b
00000110: d9bf 733c 114a a73c 72e5 15bc 4848 9ebc
00000120: b560 18bc 4ee3 853c 3edb 80bc 84b4 a73c
00000130: 9403 4e3e dc71 cc3b 9284 613c 1809 28bc
00000140: 24d9 58bc a1f3 5fbc c73a 7d3c 7496 78bc
00000150: 6f8e a03c d27c 5cbc e634 183b 1a15 9b3b
00000160: f328 40bc a6a2 06bc e62d 613c 11ca 8dbc
00000170: 7d34 8ebc d071 1ebc e0b1 31bd d539 2dbc
00000180: 7523 79bc 7a11 363b 9e79 b03c 9bd1 9c3c
00000190: e235 783c 4ddf ccbb 9818 923b 0560 103c
000001a0: c7e7 80bc 8ed6 be3b 4324 9a3c 0dd2 6c3e
000001b0: 03df 5cbc 4901 293c ea0d 503e 296a 3fbe
000001c0: 123b 02bc 4cb3 313d d2d3 98bb 611c 993c
000001d0: 0c30 433d 9257 2cbc 2370 25bc ad0f 6fbc
000001e0: d77b 683c 6979 2dbb 0b3c d4bc 6898 28bc
000001f0: 73bc a8bc 3158 21bc 600e 3c3d 33e8 24bc
00000200: 371f 373c 1b19 0d3d 3c35 113c 661b 253b
00000210: 0361 623c 774f 963c 07e6 3ebb caa2 50bc
00000220: 9cce b7bb 35e0 1a3c 3283 52bc 71c5 903c
00000230: 9b72 563e bbde 8538 0d71 253c a448 07bc
00000240: b7a4 01bc 2a47 fbbb f238 1f3c 6f76 04bc
00000250: 7dba 753c 611c 33bc 2d3f 123c 0e33 c4b7
00000260: d931 c1bb 98d6 5abb 42f9 003c cbf4 1dbc
00000270: e78f 32bc 5ac7 88bc 9558 29bd 19e7 02bc
00000280: c066 19bc f322 ccbb a924 903c 44e2 8a3c
00000290: e81b d03b 9e71 6039 dc3b 173c 16da 773a
000002a0: 2391 33bc b93b 073c 7e5a 833c 56cc 7e3e
000002b0: 3bf3 fdbb 3055 4c3b 866d 4c3e 8dc4 4abe
000002c0: 6139 a5bb b853 203d 95b5 373a b0ad 803c
000002d0: f296 363d cae8 c1bb 979c 0cbc 5faf f1bb
000002e0: ef4c 963b 61ee 22ba 4719 b7bc 67b6 bebb
000002f0: 8028 83bc 2aa2 bbbb 3a56 623d e9a9 99bc
00000300: 5bc5 7ebb d0ee 9d3b e996 053a c26e 8a3c
00000310: de3f 703c 6cff ac3c 4648 5abc 650a b4bc
00000320: c2b1 49bc ebf2 a13c af9a bdbc bfa8 b63c
00000330: abb5 3d3e 4a44 1c3c e613 873c d91f 25bc
00000340: 5c24 6abc 3f6d 93bc 9a88 8c3c 8fe4 9fbc
00000350: a2e0 ae3c c3b1 69bc 6a66 03bb 3b52 1b3c
00000360: 0268 92bc 55ec 75bc 7c78 a63c e9d5 41bc
00000370: 1506 9abc d682 f53b 42ac 2dbd 229e 7fbc
00000380: 3675 a8bc 2662 1f3c 678b cc3c e803 b63c
00000390: 2448 903c c025 07bc 16f0 38bc ca14 1f3c
000003a0: 36ae bbbc 1ef7 8b39 f4f4 cd3c da69 533e
000003b0: 3b28 73bc cd47 623c c0a5 3a3e 6828 2ebe
000003c0: b481 06bc 2c87 233d e0c3 14bc ad30 a73c
000003d0: 4575 413d 62d7 83bc ff5b 83bc 1dac 6abc
000003e0: 8a00 933c 6f97 15bc ba43 b3bc 4a64 34bc
000003f0: b45c babc ecc2 3abc e87c ad3c ef1a 383b
0.030340765 0.05743884 0.0049666776 -0.0008830869 0.008574479 0.012823582 -0.003119043 -0.016572732
-0.0018119955 0.0038000261 -0.0071048876 0.015010657 0.21605268 -0.00092174654 0.013233995 -0.010224474
-0.011186555 -0.010378836 0.011918169 -0.011818149 0.011735321 -0.007791814 0.010130963 -0.003435252
-0.0060885972 0.009543046 -0.0009073812 -0.010438266 -0.009258101 -0.035165377 -0.06380187 -0.017714825
-0.021299925 -0.010761068 0.017165061 0.020025007 0.0011950075 -8.250427e-05 0.020674499 0.0039940667
-0.011137438 0.012036044 0.01280617 0.24555977 -0.008582464 -0.0051071486 0.21278886 -0.19994496
-0.0009979393 0.058888327 -0.0043035867 0.020613236 0.072556786 -0.006663853 -0.0048553604 -0.010726732
0.0031754214 0.00038692605 -0.024662357 -0.012205202 -0.02027496 -0.0006861585 0.07885207 -0.03466085
0.00743918 0.022142708 0.0039001738 0.0075020874 0.014877283 0.02042106 -0.009148942 -0.019321576
-0.0093004005 0.016343739 -0.015729543 0.020471819 0.20118552 0.006239159 0.013764517 -0.010256074
-0.013235364 -0.0136689255 0.015455908 -0.01517259 0.019599168 -0.013457494 0.002322489 0.00473274
-0.011728513 -0.008217489 0.013743853 -0.017308267 -0.017359013 -0.00967069 -0.043382525 -0.01057287
-0.0152062075 0.0027781413 0.021542367 0.019142916 0.015149565 -0.0062522055 0.004458498 0.008811955
-0.01573552 0.0058239168 0.018816119 0.23127003 -0.0134809045 0.010315248 0.20317808 -0.1869284
-0.007948654 0.04338388 -0.004663923 0.01869029 0.047653243 -0.010518925 -0.010097536 -0.01459114
0.014189682 -0.0026470071 -0.025907537 -0.010290243 -0.020597672 -0.009847687 0.045912147 -0.010065126
0.011176876 0.03444777 0.00886279 0.0025193333 0.013817075 0.018348439 -0.0029128806 -0.012734124
-0.0056093466 0.009452869 -0.012848662 0.017672272 0.20942156 6.383421e-05 0.010097754 -0.008257065
-0.007912806 -0.0076683955 0.009718167 -0.008084877 0.014998076 -0.010932059 0.008926195 -2.3388795e-05
-0.005895835 -0.0033392068 0.007871928 -0.009640883 -0.010898567 -0.01669662 -0.041344244 -0.007989668
-0.009362876 -0.006229752 0.017595606 0.016953595 0.006350983 0.0002140463 0.00923058 0.00094547996
-0.010959896 0.008253985 0.016034361 0.24882635 -0.0077499426 0.0031178705 0.19963655 -0.1980154
-0.0050422405 0.03914234 0.0007007954 0.01570782 0.044577546 -0.005917643 -0.008582256 -0.007375642
0.004586808 -0.0006215331 -0.02235092 -0.005820084 -0.016010523 -0.0057261186 0.055258013 -0.018757777
-0.0038874957 0.0048197284 0.0005096035 0.016898517 0.014663665 0.021117888 -0.013322895 -0.021977613
-0.012310447 0.019769153 -0.023145048 0.022297261 0.18526332 0.009537766 0.01648898 -0.010078394
-0.014290895 -0.017996429 0.01715498 -0.019518165 0.021347348 -0.014263573 -0.0020050057 0.0094800545
-0.01787186 -0.015009959 0.020321123 -0.011830785 -0.018801728 0.0074924035 -0.042400606 -0.015601667
-0.020563703 0.00972799 0.024968816 0.02221866 0.017612524 -0.008248746 -0.01128771 0.009709546
-0.022910219 0.00026696263 0.025141217 0.20645848 -0.014841135 0.013811064 0.18227291 -0.17007601
-0.008209635 0.03992383 -0.009079903 0.020408953 0.047230978 -0.016093913 -0.016035078 -0.014323262
0.017944593 -0.009130343 -0.02188288 -0.011010239 -0.022749282 -0.011399012 0.021177724 0.0028092226

lstm.weight_hh_l1 f4 [256, 64]
00000000: 429f d6ba 83e1 2fba 400d 373b 2eaf 3cbb
00000010: 7d37 c3ba 7148 dfba 0f8f ddb9 1c83 23bb
00000020: ad84 cf3b 26b0 c23b 543a 07ba 83fd d63a
00000030: c8df b93d 9ad7 56ba d9e6 d539 a6b5 fc3d
00000040: 77a0 793a ad39 413b 02ef 63bb 7137 533b
00000050: 6ed0 56bd a5f0 bd3a b45a 0c3b 260f 0c3b
00000060: 091a ffba 5963 3dba aa83 113a b56e a5ba
00000070: dcb6 bb3b 566a a43a faf6 1fbb 486d 9a3e
00000080: f9e7 e2ba 3877 dcbb da82 1cba 0167 f139
00000090: c51f 863a 9dd9 7f39 4395 12ba b738 023d
000000a0: 11e3 343b f271 b33b 5753 be3b bb2b db3b
000000b0: cd7f 493b 368c d8ba cf91 9d3b c2b5 923a
000000c0: dc17 963b f127 083b edb3 1bb9 68ba 8e38
000000d0: ed38 1bba 8944 703a d20a bc3b 3353 82ba
000000e0: 6073 58ba d8a6 8b38 eff7 fbba 7ace 273b
000000f0: cc2a d0ba 8ce5 cc3a 375e be3b 044d 96ba
00000100: 3730 fbb9 f95f 32ba 059c 3a3b 2953 43bb
00000110: e7e0 ceba 5e0b 66bb 0b37 fcb9 9f7e b9ba
00000120: e0d2 a73b bc9d a23b b249 a239 9f97 813a
00000130: 4765 803d 1a47 59ba 1632 5cb9 0e9f 163e
00000140: 4f35 c63a ce15 1bbb 5ee9 a7ba 4d6d 08bb
00000150: 4f21 ccbc 1514 1db9 88d2 2f3b 9c82 ddba
00000160: 8703 84bb cf43 71ba ebdf f3ba d35a 49bb
00000170: d914 9dba 72d9 30b9 550c 80bb 6b9e a03e
00000180: 4fb3 64bb 32b0 09ba 3997 4dbb f858 28bb
00000190: 194e b9b8 9784 40bb 4742 5cbb fbea c43c
000001a0: ef14 603a c56c a53b fe85 c0b9 fe65 0238
000001b0: ce97 693a 70b3 fcb9 a1e7 f439 fec5 c6ba
000001c0: e006 f0ba ebdc 34bb f234 7ebb 19fb 90b9
000001d0: ace9 5dba 435e e339 9977 a73b 4493 6aba
000001e0: 3c75 51ba 111b 13ba 089d 1cbb dc48 e63a
000001f0: c929 2bbb 86da 46bb 3e6a 9e3b 6a34 2ebb
00000200: 9034 3dbb 1f53 4bbb f8db 093b ac36 8bbb
00000210: 5d78 15ba 6da7 84bb c380 9538 12fb 44bb
00000220: e29d 853b 67e1 673b 4da4 b53a 7b49 f33a
00000230: d33d a23d b418 47bb d312 943a f021 153e
00000240: 59e2 f53a cd8a 52bb d027 65bb 09ce 203a
00000250: 1d54 14bd c62b 8e3a cad9 d6b9 5cfd 353a
00000260: 7337 44bb e0e5 3cbb b3d1 58b9 a02c a5ba
00000270: 99af e53a 4feb a73a 8ced 60bb dcea 9f3e
00000280: 05b6 85bb d8e9 b2bb 88a7 22bb 64c5 ebba
00000290: 40b4 3c3a 5cfc 81ba 2140 72bb 4dde bf3c
000002a0: 1ba0 013b a150 6c3b d6c7 2b3b dd71 4c3b
000002b0: 83f9 ea3a 5751 2fbb 1c8f e33a 5476 47bb
000002c0: 00e3 7b3a 7d67 9ab9 e726 77bb b72f 32bb
000002d0: 2699 44bb c4b1 c13a 4e67 7c3b ad88 43bb
000002e0: 13af 3bbb 47fb 3dbb 6e1f b8b9 5b3d 393b
000002f0: 28fd 50bb dfc3 5bba 65bf 653b c15c 80ba
00000300: 3dd7 ddba bfbd c0b6 321d f73a 387a d3bb
00000310: 174f c0ba e11e 27bb 87d1 f7ba 5a1f 70ba
00000320: b813 273b af92 fd3a ffda ccb9 df61 113b
00000330: df78 3b3d 9319 1138 304d 8eba 389d 183e
00000340: c3de 3dba bab5 57bb 7a80 85ba e89e 7b3b
00000350: 0d4d 83bc d690 4d3a 4f4d 1fba 95d8 823b
00000360: 56a6 53bb 9013 1238 c9bd 88bb 981f e1b8
00000370: d60a 953b c750 d738 64a6 76bb 97e7 913e
00000380: c7d1 36bb 4945 87bb 34b3 51bb 7bbd 49bb
00000390: e03c 11bb da59 daba fa39 6cbb 9f77 8a3c
000003a0: 4eb3 1639 9d2f e03a 5883 9f3b 2db6 aa3b
000003b0: f3cb 6d3b 1e57 f4ba 4188 17bb ca9a 113a
000003c0: aeb2 863b fa67 df3a 367f 20bb 4252 873a
000003d0: b90d b6b8 2bf7 c4ba 3228 003b a3f7 feb8
000003e0: a765 4738 8b0b 87b9 01c1 1db9 126d 4b3a
000003f0: 71ce 00bb af0c 19ba d5b8 243b b205 98ba
-0.0016374367 -0.0006709324 0.0027931482 -0.0028790939 -0.0014893856 -0.0017035139 -0.00042258992 -0.0024949973
0.006332955 0.0059414087 -0.0005158533 0.0016402457 0.09075886 -0.0008195579 0.0004079852 0.12339334
0.00095225073 0.002948384 -0.003477991 0.003222909 -0.052444868 0.0014491273 0.0021416368 0.0021371334
-0.0019462715 -0.0007224582 0.00055509305 -0.0012621494 0.0057285856 0.0012543898 -0.0024408684 0.301615
-0.0017311565 -0.006728079 -0.0005970426 0.00046043846 0.0010232857 0.00024399762 -0.00055917 0.03179237
0.0027601162 0.00547623 0.0058082747 0.0066885627 0.0030746341 -0.0016521278 0.0048086415 0.0011193084
0.004580481 0.002077576 -0.0001484898 6.8058085e-05 -0.00059212634 0.0009165486 0.0057385946 -0.0009943008
-0.00082569383 6.6591136e-05 -0.001922367 0.0025605247 -0.0015881895 0.0015632375 0.005809571 -0.0011467044
-0.00047910374 -0.0006804462 0.0028474343 -0.0029804206 -0.0015783579 -0.003510199 -0.00048106196 -0.0014152116
0.005121574 0.004962651 0.00030953955 0.0009887106 0.06269317 -0.0008288488 -0.00020999493 0.14709112
0.0015122088 -0.002366412 -0.0012810638 -0.0020817101 -0.024918227 -0.00014980168 0.0026828367 -0.0016899887
-0.004028741 -0.00092035247 -0.0018606161 -0.0030724301 -0.0011984362 -0.00016865673 -0.00390772 0.31370863
-0.0034896915 -0.00052523904 -0.0031370653 -0.0025687795 -8.836034e-05 -0.0029375905 -0.003360884 0.024037829
0.0008548041 0.0050483667 -0.00036720926 3.1089403e-05 0.0008910865 -0.00048198877 0.00046711884 -0.0015165207
-0.0018312596 -0.0027597498 -0.0038788882 -0.00027652903 -0.0008465301 0.00043367044 0.0051106927 -0.0008948336
-0.00079901866 -0.0005611638 -0.002389731 0.0017569321 -0.0026117435 -0.0030342652 0.0048344424 -0.0026581534
-0.002887044 -0.0031024886 0.0021035653 -0.0042484608 -0.00057018345 -0.004048279 7.1288574e-05 -0.0030056876
0.004077659 0.0035382153 0.001385817 0.0018561328 0.07921948 -0.0030379714 0.0011297114 0.14563727
0.0018759473 -0.0032126189 -0.0034966357 0.0006134217 -0.03621303 0.0010846786 -0.00040979526 0.00069423555
-0.0029940277 -0.002882354 -0.00020677484 -0.00126018 0.0017523646 0.0012811216 -0.0034321276 0.3123387
-0.0040805363 -0.0054600053 -0.0024819095 -0.0017987904 0.000719849 -0.0009917128 -0.0036964493 0.023421431
0.0019779268 0.00360588 0.002621164 0.0031195797 0.0017927143 -0.0026751363 0.0017361376 -0.003043552
0.0009608716 -0.00029450274 -0.0037712397 -0.0027189085 -0.002999851 0.001477771 0.0038513723 -0.0029836104
-0.0028638288 -0.0028988884 -0.00035118632 0.002826533 -0.0031889174 -0.0008383374 0.0035056707 -0.0009793268
-0.0016925108 -5.7441353e-06 0.0018853305 -0.0064537786 -0.0014672008 -0.0025500583 -0.0018907049 -0.0009159945
0.002549393 0.0019346083 -0.00039073077 0.002218358 0.04576957 3.459451e-05 -0.0010856744 0.14903724
-0.0007242972 -0.0032914714 -0.0010185384 0.0038394276 -0.016027952 0.00078417116 -0.00060768885 0.0039931037
-0.003229519 3.482733e-05 -0.004173015 -0.00010734721 0.004548411 0.00010267045 -0.0037635798 0.28497002
-0.0027896033 -0.0041281325 -0.0031997683 -0.0030783105 -0.0022161528 -0.0016658858 -0.00360453 0.016902743
0.00014371911 0.0017104034 0.0048679523 0.0052097053 0.0036284893 -0.0018641686 -0.0023121985 0.00055543764
0.0041106557 0.0017044537 -0.0024489886 0.0010324197 -8.680992e-05 -0.0015027275 0.0019555208 -0.0001215779
4.753997e-05 -0.00025757807 -0.00015044586 0.0007760088 -0.0019654299 -0.0005838377 0.0025134583 -0.0011598377

lstm.bias_ih_l1 f4 [256]
00000000: c505 efbe d415 00bf c367 efbe 8cd2 f9be
00000010: 6f58 f4be a65d f8be 3b3a d1be ef82 0cbf
00000020: a389 c2be 3d42 cbbe 70c9 fabe 8f71 e2be
00000030: 47d6 923c 04a9 ebbe 4b94 04bf 632d f83d
00000040: ec3c f2be 438a f9be f5a2 f4be ac91 d4be
00000050: a90f f0bd b64a febe 6b20 fbbe cf1b e0be
00000060: cd84 f9be 3b34 f7be d7aa 97be 5484 02bf
00000070: 89ff b8be c53a dfbe 1865 0abf 5ba8 f53e
00000080: 1d03 ecbe 51d3 e0be 437b ffbe ca9e f3be
00000090: 7807 ffbe 2f5a fbbe eb39 01bf ca5a 3c3d
000000a0: 0abf e7be a5af cbbe 5616 abbe 4561 a2be
000000b0: b415 edbe 8747 e2be 0fae bdbe 7bab e0be
000000c0: 5b9c c9be e0a2 f6be cffb ebbe be54 eabe
000000d0: aa56 f4be d43e e0be 6dba c8be eb6d eebe
000000e0: 0f6d f1be a099 eabe 7837 f3be a892 e7be
000000f0: 54d4 f6be 499c efbe fc7d cfbe 7d45 eebe
00000100: 50e6 81be 4409 85be b0a2 72be 444b 8cbe
00000110: 17f4 84be 8dfd 7cbe cdff 70be 2903 92be
00000120: 48d9 56be bae3 61be bd70 8fbe fb1e 8bbe
00000130: 94a1 9b3d 6cb7 90be d9fb 92be 3c13 2f3e
00000140: 29b0 7dbe 07ca 8bbe 205c 90be 7ebe 75be
00000150: 09b2 8cbd 948d 8bbe d184 9cbe 2280 89be
00000160: aade 91be a9b6 8fbe c205 87be 706d 89be
00000170: 6498 4dbe 6ad7 70be 337b 97be 4896 9b3e
00000180: a7ef 86be 0334 f7be efc0 8ebe 3104 85be
00000190: 1955 88be a80a 89be f667 93be 78c4 4b3d
000001a0: 2eff 86be 2156 57be a482 33be 49e6 29be
000001b0: b931 90be 05f2 8bbe 2b11 8ebe b7bd 89be
000001c0: 459a 6abe c6ff 8fbe 6216 89be d892 88be
000001d0: b54d 90be bef8 91be b607 53be 3733 91be
000001e0: 07eb 90be 6235 85be db20 88be f3e6 80be
000001f0: 1992 83be 5aa5 8cbe 6c3a 5cbe b5ba 97be
00000200: 080c bdbc e352 abbc 91a9 b3bc a969 8fbc
00000210: 183f c8bc acad a2bc c848 cbbc b7dd a1bc
00000220: 5fe9 bebc 97b8 c0bc 2802 93bc 6700 a6bc
00000230: 95a8 4e3d 3d59 8cbc f4ca a8bc 2bad 85bd
00000240: 1d0a a1bc 5534 b8bc 52f1 89bc 102e c1bc
00000250: 60e0 92bd dcb1 b6bc b313 b5bc c1e1 a9bc
00000260: f37a a1bc c7bf 92bc 0a32 1a3d 5a07 a3bc
00000270: 986f cfbc 16a5 bbbc d987 93bc bfa7 0bbe
00000280: 1e5d 8dbc 558a 133d 62c4 a9bc e6dc bbbc
00000290: 956e a3bc f4bb a5bc aeb6 94bc 447d 37bd
000002a0: 3d12 a3bc 0829 bcbc f58c cebc 7fe7 cebc
000002b0: edeb a0bc 93c9 c8bc 999a b63c 4835 b3bc
000002c0: 1c31 cbbc ca13 b4bc edb1 afbc 6e9c a9bc
000002d0: 1e92 8fbc 5e1c 7ebc 3a27 bcbc 2dcd 85bc
000002e0: 80e6 8dbc 4b91 adbc a309 a1bc f8a4 b1bc
000002f0: 5239 a5bc 2c9e 9abc 1e05 c0bc 3b18 5fbc
00000300: e7a4 efbe 8b63 00bf 8c12 f0be 684f fabe
00000310: 353c f5be 80ff f8be 3a1f d2be f2cd 0cbf
00000320: 2446 c3be 93f7 cbbe 7e4b fbbe 97d1 e2be
00000330: 1ace 673d 94f6 ebbe 35de 04bf 34bc ad3d
00000340: f9e5 f2be e222 fabe a10b f5be 3d61 d5be
00000350: bfb3 eabd c00b ffbe 62d9 fbbe da8a e0be
00000360: efe7 f9be 8f9d f7be 8d0f 98be c7cf 02bf
00000370: f6de b9be 4dfc dfbe f596 0abf 2ae4 723e
00000380: 5f72 ecbe b3ad e1be 9fec ffbe 7c30 f4be
00000390: 5499 ffbe 84e4 fbbe fe66 01bf 0405 3c3d
000003a0: 233a e8be ba76 ccbe ebc3 abbe c207 a3be
000003b0: 0a6c edbe e8fd e2be ff0b bebe 422c e1be
000003c0: 076f cabe 4429 f7be e58c ecbe a4c8 eabe
000003d0: 78b8 f4be a891 e0be be86 c9be bfc1 eebe
000003e0: ddc5 f1be fc21 ebbe 6ece f3be 3c37 e8be
000003f0: c853 f7be 53ff efbe 0d66 d0be cd97 eebe
-0.4668409 -0.5003331 -0.4675885 -0.48793447 -0.4772372 -0.48508948 -0.4086474 -0.5488729
-0.37995633 -0.39698973 -0.4898181 -0.44227263 0.017924441 -0.46027386 -0.5178878 0.12118032
-0.47312105 -0.48738298 -0.47780576 -0.4151739 -0.11721737 -0.49666375 -0.4904817 -0.43771216
-0.4873413 -0.48282036 -0.29622528 -0.50983167 -0.36132458 -0.43599525 -0.54060507 0.47980008
-0.46096125 -0.43911222 -0.4989873 -0.47582084 -0.49810386 -0.49092242 -0.50479 0.04598502
-0.4526294 -0.39782444 -0.33415478 -0.31714836 -0.4630562 -0.44195196 -0.3704686 -0.4388083
-0.39377102 -0.4817114 -0.46090552 -0.45767778 -0.4772237 -0.43797934 -0.39204732 -0.46568236
-0.47153518 -0.45820332 -0.47503257 -0.45229077 -0.48208869 -0.46798924 -0.40525806 -0.4653739
-0.25371027 -0.25983632 -0.23694873 -0.27401173 -0.25967476 -0.24706097 -0.2353508 -0.28518036
-0.20981324 -0.22059527 -0.280157 -0.27172074 0.07599178 -0.2826494 -0.2870777 0.17097181
-0.24774231 -0.27302572 -0.28195286 -0.23998448 -0.06869895 -0.27256453 -0.3057008 -0.2685557
-0.28490192 -0.28069046 -0.2637158 -0.26841307 -0.20077664 -0.23519674 -0.2958618 0.30388093
-0.26354715 -0.4828187 -0.27881572 -0.2597976 -0.26627424 -0.26765943 -0.28790253 0.049747914
-0.26366562 -0.2102895 -0.17530304 -0.16591753 -0.28162935 -0.27333084 -0.27747473 -0.26902553
-0.22910412 -0.28124827 -0.2677489 -0.26674533 -0.28184286 -0.28510088 -0.2060841 -0.28359386
-0.28304312 -0.2601729 -0.26587567 -0.251762 -0.256974 -0.27469903 -0.21506661 -0.29634634
-0.023077026 -0.020913547 -0.021931442 -0.017506437 -0.024444148 -0.019858204 -0.024814978 -0.019759042
-0.02330464 -0.02352552 -0.017945364 -0.020263864 0.05045374 -0.017132396 -0.020604588 -0.0652717
-0.019658143 -0.022485891 -0.016838703 -0.023581535 -0.071717024 -0.022301607 -0.02210412 -0.02073753
-0.019711947 -0.017913712 0.037645377 -0.019900966 -0.025321767 -0.022905868 -0.018009113 -0.13638209
-0.017256316 0.036020596 -0.020723525 -0.022932481 -0.01995019 -0.020231225 -0.018153515 -0.044797197
-0.019906158 -0.022968784 -0.025213698 -0.02525687 -0.019643748 -0.02451018 0.022290515 -0.021875992
-0.02480369 -0.021982092 -0.021447146 -0.020704474 -0.017525729 -0.015509693 -0.022967923 -0.016333187
-0.017321825 -0.021187445 -0.019657915 -0.021685109 -0.020168934 -0.01887425 -0.02343994 -0.013616617
-0.46805498 -0.5015189 -0.4688915 -0.48888707 -0.47897497 -0.4863243 -0.4103945 -0.5500175
-0.3813945 -0.39837322 -0.49081033 -0.4430053 0.05659304 -0.46086562 -0.5190156 0.084831625
-0.4744108 -0.48854738 -0.47860435 -0.4167575 -0.11460065 -0.49813652 -0.49189287 -0.43855935
-0.48809764 -0.48362395 -0.29699364 -0.51098293 -0.36302918 -0.43747178 -0.5413659 0.2371985
-0.46181008 -0.44077834 -0.49985215 -0.4769324 -0.49921668 -0.4919778 -0.5054778 0.04590322
-0.45356855 -0.3993433 -0.3354791 -0.31841856 -0.4637149 -0.4433434 -0.37118527 -0.4397908
-0.39537832 -0.4827367 -0.46201244 -0.45856202 -0.47796988 -0.43861127 -0.39360613 -0.46632192
-0.4722127 -0.45924366 -0.4761843 -0.4535464 -0.48306108 -0.46874484 -0.4070286 -0.4660019
